…
2024-01-08 10:35:51,464 [MainThread  ] [INFO ]  Checking/Download features and labels locally
2024-01-08 10:35:51,526 [MainThread  ] [INFO ]  Pre-compute clips
100%|████████████████████████████████████████████████████████████████████████████████████████████████████████████████████████████████████████████████████████| 100/100 [00:52<00:00,  1.91it/s]
2024-01-08 10:36:43,753 [MainThread  ] [INFO ]  Checking/Download features and labels locally
2024-01-08 10:36:43,819 [MainThread  ] [INFO ]  Checking/Download features and labels locally
2024-01-08 10:36:43,902 [MainThread  ] [INFO ]  ContextAwareModel(
  (conv_1): Conv2d(1, 128, kernel_size=(1, 1280), stride=(1, 1))
  (conv_2): Conv2d(128, 32, kernel_size=(1, 1), stride=(1, 1))
  (pad_p_1): ZeroPad2d((0, 0, 5, 6))
  (pad_p_2): ZeroPad2d((0, 0, 13, 13))
  (pad_p_3): ZeroPad2d((0, 0, 19, 20))
  (pad_p_4): ZeroPad2d((0, 0, 39, 40))
  (conv_p_1): Conv2d(32, 8, kernel_size=(12, 1), stride=(1, 1))
  (conv_p_2): Conv2d(32, 16, kernel_size=(27, 1), stride=(1, 1))
  (conv_p_3): Conv2d(32, 32, kernel_size=(40, 1), stride=(1, 1))
  (conv_p_4): Conv2d(32, 64, kernel_size=(80, 1), stride=(1, 1))
  (pad_seg): ZeroPad2d((0, 0, 1, 1))
  (conv_seg): Conv2d(152, 272, kernel_size=(3, 1), stride=(1, 1))
  (batch_seg): BatchNorm2d(240, eps=0.001, momentum=0.01, affine=True, track_running_stats=True)
  (max_pool_spot): MaxPool2d(kernel_size=(3, 1), stride=(2, 1), padding=0, dilation=1, ceil_mode=False)
  (pad_spot_1): ZeroPad2d((0, 0, 1, 1))
  (conv_spot_1): Conv2d(289, 32, kernel_size=(3, 1), stride=(1, 1))
  (max_pool_spot_1): MaxPool2d(kernel_size=(3, 1), stride=(2, 1), padding=0, dilation=1, ceil_mode=False)
  (pad_spot_2): ZeroPad2d((0, 0, 1, 1))
  (conv_spot_2): Conv2d(32, 16, kernel_size=(3, 1), stride=(1, 1))
  (max_pool_spot_2): MaxPool2d(kernel_size=(3, 1), stride=(2, 1), padding=0, dilation=1, ceil_mode=False)
  (conv_conf): Conv2d(464, 30, kernel_size=(1, 1), stride=(1, 1))
  (conv_class): Conv2d(464, 255, kernel_size=(1, 1), stride=(1, 1))
  (softmax): Softmax(dim=-1)
)
2024-01-08 10:36:43,903 [MainThread  ] [INFO ]  Total number of parameters: 676549
2024-01-08 10:36:44,094 [MainThread  ] [INFO ]  start training
Train 1: Time 0.018s (it:0.054s) Data:0.001s (it:0.000s) Loss 1.6561e+02 Loss Seg 4.0842e+03 Loss Spot 1.6411e+02 : 100%|█████| 563/563 [00:09<00:00, 56.64it/s]
Evaluate 1: Time 0.013s (it:0.014s) Data:0.001s (it:0.000s) Loss 1.4449e+02 Loss Seg 3.5800e+03 Loss Spot 1.4317e+02 : 100%|██| 563/563 [00:07<00:00, 79.39it/s]
…
